Trained_v3.pt (torch, 5967 bytes, 3 tensors)

fc1.weight f4 [16, 64]
0	0xbd89705b	-0.06710883
1	0xbd4d9ef3	-0.050200414
2	0xbd626181	-0.05526877
3	0xbd74cf0d	-0.05976777
4	0xbd747e8a	-0.05969099
5	0x3b9fae9f	0.0048731114
6	0x3c9553a1	0.018228354
7	0x3c85332c	0.016259752
8	0xbe17d1eb	-0.14826171
9	0xbe51d1bd	-0.20490165
10	0xbe163cf5	-0.14671691
11	0xbd57d00d	-0.052688647
12	0xbcaed3d8	-0.02134125
13	0xbc9ecda9	-0.019385176
14	0x3cff84bd	0.031191224
15	0xbb5aa7ff	-0.0033364294
16	0xbe5479d0	-0.20749593
17	0xbe6e2ee4	-0.23260075
18	0x3aac8ba4	0.0013164175
19	0x3d16cffb	0.03681944
20	0x3d5e4be5	0.054271597
21	0x3d813999	0.06309814
22	0x3dcb33dd	0.099220015
23	0x3d15155f	0.036397334
24	0xbe81349a	-0.25235444
25	0xbeb1a4bd	-0.34695998
26	0x3e005e22	0.12535909
27	0x3e00b891	0.12570406
28	0x3d8c1876	0.06840603
29	0x3cd83735	0.026393512
30	0x3dea6184	0.11444381
31	0x3e072cbb	0.13200657
32	0xbea6db16	-0.32589024
33	0xbf39fcbe	-0.7265128
34	0x3e6bc3f3	0.23023967
35	0x3e650ffb	0.22369377
36	0x3dc002b5	0.09375516
37	0x3d284167	0.041077998
38	0x3dc4a492	0.09601702
39	0xbd2ab449	-0.04167584
40	0xbf13396b	-0.5750949
41	0xbe519048	-0.20465195
42	0xbd7c05a9	-0.061528835
43	0x3d7c3d5e	0.06158196
44	0x3cfc2ce3	0.030783122
45	0xbc393f22	-0.011306556
46	0xbd047479	-0.03233764
47	0xbc60af74	-0.013713706
48	0xbe7a1f38	-0.24425972
49	0xbe6e5777	-0.23275553
50	0xbe7c7e18	-0.24657476
51	0xbe386edd	-0.18011041
52	0xbdca6935	-0.09883348
53	0xbd04ad86	-0.032392047
54	0x3ac0689f	0.0014679617
55	0x3ca3ad86	0.019980203
56	0xbd17e7d2	-0.037086315
57	0xbd73406a	-0.059387602
58	0xbdb6175a	-0.08891173
59	0xbdfbcaa7	-0.12294512
60	0xbe17c97d	-0.14822955
61	0xbd69f415	-0.05711754
62	0xbd89a3ab	-0.0672067
63	0xbc8e71c9	-0.017388241
64	0xbd471b75	-0.04861017
65	0xbce97ba5	-0.028501341
66	0xbc973ddb	-0.018462112
67	0x3dd8aa8d	0.10579405
68	0x3cfa59d1	0.030560406
69	0x3d1474d9	0.036244247
70	0xbbb8d855	-0.005641023
71	0xbce69b07	-0.028150095
72	0xbd4410da	-0.047867633
73	0xbc9748a3	-0.018467253
74	0x3d1ae276	0.037813626
75	0x3e098636	0.13430104
76	0xbd13327b	-0.035936814
77	0xbbf400e2	-0.0074463943
78	0xbd840654	-0.064465195
79	0xbe4e8646	-0.20168409
80	0x3ce12366	0.0274827
81	0xbb76dbea	-0.00376677
82	0x3cdddc3f	0.02708256
83	0x3d888ce3	0.06667497
84	0x3d85145e	0.06498025
85	0x3da4ac3a	0.08040662
86	0xbe98b950	-0.29828882
87	0xbdf3a59c	-0.11896822
88	0x3d2b7d8d	0.04186778
89	0x3c5748a0	0.013139874
90	0x3d3e6568	0.046483427
91	0x3d8b5afd	0.06804464
92	0x3d04a718	0.032385916
93	0xbe3e0817	-0.18557774
94	0xbd71dd22	-0.05904878
95	0xbe3e9501	-0.18611528
96	0xbd1da122	-0.038483746
97	0xbd747ba3	-0.05968822
98	0x3d9a597f	0.07536601
99	0xbe23e3aa	-0.16004816
100	0xbdce37d9	-0.10069246
101	0xbe8ab5db	-0.2709187
102	0x3b9ed5e9	0.0048472774
103	0xbe0227df	-0.12710522
104	0xbdf1a6e5	-0.11799411
105	0xbe363ce7	-0.1779667
106	0xbd1a1d2f	-0.037625488
107	0xbe23996d	-0.15976496
108	0xbe507203	-0.20355992
109	0xbc368d3b	-0.01114207
110	0x3dc68aa4	0.09694412
111	0x3de4abd8	0.11165589
112	0xbdac2290	-0.0840503
113	0xbe5b9bce	-0.21446154
114	0xbe98b6ba	-0.2982691
115	0xbd97c7bf	-0.074111454
116	0xbe3b9445	-0.18318279
117	0xbe4721ec	-0.19446534
118	0x3cb4b779	0.022060143
119	0xbc1a49fc	-0.009417053
120	0xbd940864	-0.07228163
121	0xbe7bb3a7	-0.2458025
122	0xbe5c5ee0	-0.21520567
123	0xbd6d773d	-0.057975043
124	0x3d3e46a1	0.046454076
125	0xbd26bac3	-0.040705454
126	0xbd4c9e9b	-0.049955945
127	0xbc9e5401	-0.019327166
128	0xbd61bdba	-0.055112578
129	0xbd802260	-0.062565565
130	0x3b6deedc	0.0036305701
131	0xbd108238	-0.035280436
132	0xbd3aac50	-0.045574486
133	0xbd99474c	-0.07484302
134	0xbd60fec2	-0.054930456
135	0xbe1307f2	-0.143585
136	0xbcbfd41e	-0.023416575
137	0xbd5c22d2	-0.053744145
138	0xbe265c4a	-0.16246143
139	0xbe6c66fa	-0.23086157
140	0xbe68d5cf	-0.22737812
141	0xbe70645b	-0.23475783
142	0xbe76cb26	-0.24100932
143	0xbe9d7c4b	-0.3075889
144	0xbd42c1b7	-0.047548022
145	0xbc9119d5	-0.017712513
146	0x3d16b165	0.03679027
147	0x3c8c7551	0.017145785
148	0x3c777171	0.01510273
149	0x3bd49138	0.006487038
150	0xbf0a17ef	-0.5394277
151	0xbea25ec1	-0.31712916
152	0x3c4547e9	0.0120410705
153	0x3d53c950	0.05170566
154	0x3d90fa10	0.07078946
155	0x3de22517	0.110422306
156	0x3e21f4cc	0.15816039
157	0x3e190135	0.14941867
158	0xbf0d3fae	-0.5517529
159	0xbed5e742	-0.41777998
160	0x3d7655b0	0.06014031
161	0x3dde3676	0.10850231
162	0x3d6e5ec3	0.05819584
163	0x3df7f1f5	0.121066965
164	0x3dec2593	0.11530604
165	0x3d1979e5	0.037469763
166	0xbde36f54	-0.111052185
167	0xbeae4920	-0.34040165
168	0x3d8b72e8	0.06809026
169	0x3df023e8	0.117255986
170	0x3db17baa	0.08666165
171	0x3ac1d485	0.0014788067
172	0xbc15de30	-0.009147212
173	0xbda095fb	-0.078411065
174	0xbdddc82c	-0.108291954
175	0xbe5010bf	-0.20318888
176	0x3d0bbc6b	0.034115236
177	0x3cb5cc5d	0.022192175
178	0xbd579a81	-0.05263758
179	0xbd8bb909	-0.06822402
180	0xbde8f964	-0.113756925
181	0xbddb5206	-0.10709004
182	0xbda49a4f	-0.080372445
183	0xbdecf9c5	-0.11571077
184	0x3d22857d	0.039678086
185	0xbd8e88b7	-0.0695967
186	0xbd5dba7b	-0.05413292
187	0xbcc8029f	-0.024415312
188	0x3d34a854	0.044105843
189	0x3c2e2c6d	0.010630709
190	0xbd03ee9b	-0.032209974
191	0xbd607f91	-0.054809157
192	0x3d9074ab	0.07053503
193	0x3d237a1a	0.039911367
194	0x3b8820c6	0.0041542975
195	0xbd035f5a	-0.032073356
196	0xbd1af9f5	-0.037836034
197	0xbc9da42e	-0.019243326
198	0xbc7c4c9f	-0.015399127
199	0x3c00f0a3	0.007869872
200	0x3d01e0b5	0.031708438
201	0x3de2221d	0.11041663
202	0x3e37ab4d	0.1793644
203	0xbd8cb263	-0.06869962
204	0xbc6b7993	-0.014372247
205	0xbd597b02	-0.053095825
206	0xbd70fb3e	-0.058833353
207	0x3ccea672	0.025225852
208	0xbd45e4d4	-0.04831393
209	0xbc8e4ad7	-0.01736967
210	0x3d4b4b8c	0.049632594
211	0x3c7501b9	0.014954024
212	0x3c28554e	0.0102742445
213	0xbd8f5744	-0.069990665
214	0xbdc5ce82	-0.09658529
215	0x3c477ead	0.012176198
216	0xbd86c615	-0.0658075
217	0xbd9b7960	-0.0759151
218	0xbceb838c	-0.02874925
219	0x3c1cd480	0.009572148
220	0x3db0e85f	0.08638071
221	0x3db53ade	0.08849119
222	0xbe404d1d	-0.18779416
223	0xbe35aa6f	-0.17740797
224	0xbce7705a	-0.028251816
225	0xbd837a0d	-0.06419764
226	0xbdff1a80	-0.12456226
227	0xbe741253	-0.23835115
228	0xbdb4dda6	-0.088313386
229	0xbc883189	-0.016625183
230	0xbea8ffc1	-0.33007625
231	0xbeb1b025	-0.347047
232	0xbc41a804	-0.011819843
233	0x3c83ea49	0.016102927
234	0xbe881e80	-0.2658577
235	0xbe17e10f	-0.14831947
236	0xbe5d0e62	-0.21587518
237	0xbe01fd39	-0.12694253
238	0xbe1b15ff	-0.1514511
239	0xbe7bbbbc	-0.24583334
240	0xbc974819	-0.018466996
241	0xbdf853d7	-0.12125366
242	0xbd943f3b	-0.07238623
243	0x3d0231ec	0.03178589
244	0x3e484011	0.1955569
245	0x3d090b8c	0.033458278
246	0xbdb2d15c	-0.087313384
247	0xbe3cc0e6	-0.1843296
248	0xbb66b5e4	-0.003520363
249	0xbe29b09a	-0.16571274
250	0x3dea24b1	0.114327796
251	0x3d1a5b7c	0.037684903
252	0xbc76f5c5	-0.015073244
253	0x3c47c545	0.012193029
254	0xbcd7049f	-0.02624732
255	0x3c372f86	0.011180764

fc1.bias f4 [16]
0	0xbce44e59	-0.02786939
1	0xbda43684	-0.080182105
2	0xbaf97da6	-0.0019034639
3	0xbe01fcb8	-0.12694061
4	0x3e869e6a	0.26292735
5	0xbcfe0de1	-0.031012477
6	0x3e291554	0.16512042
7	0x3e4d9881	0.20077707
8	0xbdb5b18c	-0.08871755
9	0x3bf6af0d	0.007528192
10	0xbcff4ca9	-0.031164484
11	0xbe0d8961	-0.13821937
12	0x3e328d53	0.17436723
13	0xbdfb6ea8	-0.122769654
14	0xbde40fbe	-0.11135815
15	0x3dfb93b4	0.122840315

fc2.weight f4 [1, 16]
0	0x3daebf5d	0.085325934
1	0x3da47db0	0.080317855
2	0x3d81007a	0.06298919
3	0x3d519a8c	0.051172778
4	0xbe9551f5	-0.2916409
5	0xbe14b649	-0.14522661
6	0xbe4b72c0	-0.19867992
7	0xbe0d71eb	-0.13812988
8	0xbe1165d8	-0.14199007
9	0x3d09fc05	0.03368761
10	0x3d34e3e4	0.044162646
11	0x3d7ff8df	0.0624932
12	0xbe0914a8	-0.13386786
13	0x3dc8bea4	0.09801987
14	0x3da48102	0.08032419
15	0xbe31a2c8	-0.17347252
