Trained_v1.pt (torch, 5967 bytes, 3 tensors)

fc1.weight f4 [16, 64]
0	0xbdcc2e3b	-0.09969755
1	0xbe2e2848	-0.17007554
2	0xbe435406	-0.19075021
3	0xbe60d6fe	-0.21957013
4	0xbe1602b5	-0.1464947
5	0xbe0f3d7d	-0.139883
6	0xbd2970f8	-0.0413675
7	0xbc4749f5	-0.012163629
8	0xbdf3f0f7	-0.11911195
9	0xbe609c77	-0.21934687
10	0xbec91275	-0.39271894
11	0xbe987815	-0.29779115
12	0xbe1dd000	-0.15411377
13	0xbe0be72e	-0.13662407
14	0xbda4446e	-0.080208644
15	0xbbfb3923	-0.0076667233
16	0xbe04b381	-0.129591
17	0xbeae87c8	-0.34087968
18	0xbe1cc06b	-0.15307777
19	0x3df97bca	0.12181814
20	0x3d4c2386	0.049838565
21	0xbbd4cffd	-0.0064945207
22	0xbd2f419b	-0.042787176
23	0xbd28a125	-0.041169304
24	0xbe12c85c	-0.14334244
25	0xbe671db7	-0.22569929
26	0x3e3e691a	0.1859478
27	0x3cf3fb17	0.029782815
28	0x3d0ced12	0.034405775
29	0xbca0a17d	-0.019608254
30	0x3d75365d	0.059866298
31	0x3ccdea39	0.0251361
32	0xbe00dbf6	-0.12583908
33	0xbde9ad46	-0.114100024
34	0x3d708810	0.05872351
35	0x3ccee3ea	0.025255162
36	0xbc9dbe27	-0.01925571
37	0xbd8fd86d	-0.07023702
38	0x3db55d7c	0.08855721
39	0x3d8fde2e	0.07024799
40	0xbd90bf62	-0.070677534
41	0xbd69df35	-0.057097632
42	0x3d008a23	0.031381737
43	0x3cc9db2c	0.024640642
44	0xbd432592	-0.04764325
45	0xbe6a1336	-0.22858891
46	0x3e3fd8d6	0.1873506
47	0x3d415eb9	0.047209475
48	0x3acaa2fb	0.0015459949
49	0xbcd739df	-0.026272712
50	0x399c8870	0.00029856293
51	0x3dfb8c25	0.1228259
52	0x3e27f455	0.16401799
53	0xbebb8b38	-0.36629653
54	0xbd4e0596	-0.050298296
55	0x3d54d88a	0.05196432
56	0x3bb45e09	0.005504374
57	0xbb80f0c1	-0.00393495
58	0xbca703f7	-0.020387633
59	0x3da99843	0.08280995
60	0x3dfaac1e	0.1223986
61	0xbd9d56af	-0.07682549
62	0xbe054c63	-0.1301742
63	0xbd679430	-0.056537807
64	0xbd1cb9c0	-0.038263083
65	0xbd1c7372	-0.038196035
66	0xbc1e387b	-0.009657021
67	0xbc8f2c25	-0.017477104
68	0xbd453b1a	-0.048152067
69	0xbcdba6fb	-0.02681302
70	0x3c8ddb27	0.017316414
71	0x3c993525	0.0187021
72	0xbe246e42	-0.16057685
73	0xbe0ee871	-0.13955857
74	0xbdab0d74	-0.08352175
75	0xbccd821b	-0.025086453
76	0xbd5b8210	-0.053590834
77	0xbce0eeea	-0.027457673
78	0x3d2e0c1b	0.042492013
79	0x3c8076ec	0.015681706
80	0x3d96d599	0.07364959
81	0xbeefb521	-0.46817878
82	0x3da01f96	0.078185245
83	0x3d2a6a6d	0.0416054
84	0xbc22ef56	-0.009944757
85	0x3d614297	0.054995146
86	0x3da31257	0.079624824
87	0x3d92b805	0.07164005
88	0xbd0ae67f	-0.033911224
89	0xbe219d0a	-0.15782562
90	0xbdd9aec4	-0.10629037
91	0x3bd2d55d	0.0064341263
92	0x3cb6add0	0.022299677
93	0x3d91b115	0.07113854
94	0x3dc5f97e	0.096667275
95	0x3d0a3013	0.033737253
96	0xbdf428b0	-0.11921823
97	0xbe133c2d	-0.14378424
98	0xbd9d5bbb	-0.07683512
99	0x3dfc1d3a	0.12310262
100	0x3da7d8f5	0.08195678
101	0x3d4c7464	0.049915686
102	0x3c7a939a	0.01529398
103	0x3c1bdc4f	0.009512975
104	0xbe3fd433	-0.18733291
105	0xbe846dfc	-0.2586516
106	0x3d9c1247	0.076206736
107	0x3e31a41d	0.1734776
108	0x3d939f33	0.07208099
109	0x3c5ccd1e	0.013476638
110	0xbd39b5ee	-0.045339517
111	0xbd7afdde	-0.061277263
112	0xbe97e942	-0.2967015
113	0xbea567d6	-0.32305783
114	0xbecf517e	-0.4049186
115	0xbecf0b91	-0.40438512
116	0xbe1eed5f	-0.15520237
117	0xbd945a7c	-0.07243821
118	0xbd95bce1	-0.073114164
119	0xbd1da1cc	-0.03848438
120	0xbe893b2f	-0.26802966
121	0xbe6926b9	-0.22768678
122	0xbd894968	-0.06703454
123	0xbe95f59f	-0.29288957
124	0xbe80382a	-0.2504285
125	0xbcf1cfba	-0.029517997
126	0xbc7bc26d	-0.015366179
127	0x3d10ceea	0.03535358
128	0xbcdfe140	-0.027329087
129	0xbbdd0755	-0.006745259
130	0x3d32f0b7	0.043686595
131	0x3d4bb84f	0.049736317
132	0x3d4a9ea6	0.049467705
133	0x3c913a78	0.017728075
134	0xbc3e7f17	-0.01162698
135	0xbca71df1	-0.02040002
136	0xbc7967aa	-0.015222469
137	0xbcc271a0	-0.023735821
138	0x3e037563	0.12837748
139	0x3d84861f	0.06470894
140	0x3d8e29df	0.0694158
141	0x3d5252c0	0.051348448
142	0xbdb0bd55	-0.08629862
143	0xbd8dd5fc	-0.0692558
144	0x3cb6dc04	0.022321709
145	0xbdbf8ae6	-0.09352665
146	0x3da3ed01	0.08004189
147	0x3c56030a	0.013062248
148	0x3c9daf9a	0.019248772
149	0x3da225b6	0.07917349
150	0xbdd0bad0	-0.10191882
151	0xbdde26e7	-0.10847264
152	0x3b404a9e	0.002934135
153	0xbe0bf3d8	-0.13667238
154	0x3dcfbd7f	0.101435654
155	0x3cb6eb9a	0.02232914
156	0x3dc989b6	0.098407194
157	0xbe32c849	-0.17459215
158	0xbeabaedb	-0.33531842
159	0xbe110829	-0.14163269
160	0xbdb93444	-0.09043172
161	0xbe0e5cc2	-0.13902572
162	0x3e27cbe2	0.16386369
163	0xbccb55cf	-0.02482119
164	0xbd13e7cd	-0.036109734
165	0xbdf86940	-0.1212945
166	0xbdf68ef5	-0.12038986
167	0x3d504bc3	0.050853502
168	0xbde9be72	-0.11413278
169	0xbe7b578f	-0.2454512
170	0xbe8df49e	-0.2772569
171	0xbe8334ac	-0.25626123
172	0xbe4c9f19	-0.19982566
173	0xbd4b396e	-0.049615316
174	0x3c7aba1d	0.015303162
175	0x3c96fb75	0.01843045
176	0xbe16e85e	-0.14737079
177	0xbe991239	-0.29896715
178	0xbed64ce2	-0.41855532
179	0x3b883f17	0.0041579115
180	0xbc203ab5	-0.009779622
181	0xbe7453de	-0.23860118
182	0xbd902801	-0.0703888
183	0xb9a51e54	-0.0003149385
184	0xbd13081f	-0.035896417
185	0xbdb6f3cf	-0.089332215
186	0x3d2c4c03	0.042064678
187	0xbe9760b0	-0.29565954
188	0xbdb833e5	-0.08994273
189	0xbd0c88c5	-0.03431012
190	0xbe07fcd8	-0.13280046
191	0xbd46a6cd	-0.048498917
192	0xbe3b0088	-0.18261921
193	0xbe9cb131	-0.30603936
194	0xbe0d464a	-0.13796344
195	0x3d0f0123	0.034913193
196	0xbd8793b3	-0.06619968
197	0xbe76f763	-0.24117808
198	0x3db2c729	0.08729393
199	0x3ddcb53e	0.10776757
200	0xbe81e9aa	-0.25373584
201	0xbc8e2b7b	-0.017354717
202	0x3d3c9892	0.04604394
203	0x3c6e4a2f	0.014544054
204	0xbe89b48f	-0.26895568
205	0xbd3a4453	-0.045475315
206	0xbd4defa1	-0.050277356
207	0x3d4b1354	0.04957898
208	0xbe7a9a82	-0.24473003
209	0x3a8d0dbf	0.0010761543
210	0x3e1d509f	0.15362786
211	0xbe8f9725	-0.28045002
212	0xbe42dcca	-0.19029537
213	0xbe12b036	-0.14325032
214	0xbdb553c6	-0.08853869
215	0xbe405dad	-0.18785734
216	0xbec2b65b	-0.3802975
217	0x3de6bd30	0.112665534
218	0xbdea20be	-0.11432026
219	0xbd4c7e62	-0.049925216
220	0x3e96ad09	0.2942889
221	0xbdecfdb1	-0.11571825
222	0xbe7a5051	-0.24444701
223	0xbe0f10f0	-0.13971305
224	0xbe1e2a49	-0.15445818
225	0x3b812c19	0.0039420244
226	0xbe10c4d1	-0.1413758
227	0x3dff31e5	0.124606885
228	0xbe15b866	-0.14621124
229	0xbe8a18dc	-0.2697209
230	0xbdadc2f0	-0.08484447
231	0xbdb8493d	-0.08998344
232	0xbdb80d6c	-0.08986935
233	0x3d56e55e	0.052464835
234	0xbe8f4406	-0.27981585
235	0xbe309770	-0.17245269
236	0xbe1bffec	-0.15234345
237	0xbdee54dd	-0.1163728
238	0xbdb22f8a	-0.087004736
239	0xbe305ce0	-0.17222929
240	0x3d188328	0.037234455
241	0x3e0b458c	0.13600749
242	0xbd4deead	-0.050276447
243	0xbe1cdcf5	-0.15318663
244	0xbe6dfbd3	-0.23240595
245	0xbe65e767	-0.22451554
246	0xbc4e960e	-0.012609018
247	0xbdbbc223	-0.09167888
248	0x3d33a0c2	0.043854482
249	0x3dea31c6	0.11435275
250	0xbd08939d	-0.0333439
251	0xbc9692c3	-0.018380528
252	0x3c32b97e	0.010908483
253	0xbc49e32c	-0.012322228
254	0x3bd85f6c	0.006603172
255	0xbd4cca67	-0.049997713

fc1.bias f4 [16]
0	0xbc70a19a	-0.014686966
1	0xbe0b3e69	-0.13598026
2	0xbca43699	-0.020045565
3	0xbd6c9704	-0.057761207
4	0x3c1d33be	0.009594856
5	0xbd1a7471	-0.037708703
6	0xbb1de7c4	-0.0024094442
7	0xbd84256d	-0.06452451
8	0x3e4e1ae0	0.2012744
9	0xbc836ec5	-0.01604403
10	0x3e12c3b2	0.14332464
11	0x3decd56a	0.11564143
12	0x3dee1fa7	0.11627131
13	0xbcacd72d	-0.021098698
14	0x3e1d17d7	0.15341125
15	0xbdcff469	-0.101540394

fc2.weight f4 [1, 16]
0	0x3d1878c4	0.037224546
1	0x3d8f361e	0.06992744
2	0x3cd89a34	0.026440717
3	0xbe0aa17c	-0.13538164
4	0x3d2680ca	0.040650167
5	0xbe3ce4b7	-0.18446623
6	0x3d315af3	0.043299627
7	0x3dbcdbc9	0.09221608
8	0xbe94b8f5	-0.2904736
9	0x3d04151d	0.032246698
10	0xbe5184ff	-0.2046089
11	0xbe05a32f	-0.13050531
12	0xbe3740bf	-0.17895792
13	0xbdcd7d77	-0.10033696
14	0xbe8106c9	-0.2520049
15	0xbdff2217	-0.12457674
