Trained_v2.pt (torch, 5967 bytes, 3 tensors)

fc1.weight f4 [16, 64]
-0.06612356 -0.04884793 -0.25526074 -0.3132708 -0.38576588 -0.4949343 0.021732457 0.028633896
-0.1356425 -0.19825202 -0.3203527 -0.7898519 -0.2412747 0.04630906 0.08976732 -0.04910848
-0.10669698 -0.037217446 0.06524602 0.13886179 -0.45008433 -0.6618361 -0.5985072 -0.31934637
-0.04146403 -0.005335034 0.018222665 0.03610566 0.1329121 0.03705275 -0.15025406 -0.19232427
-0.05862168 0.023553368 0.04936318 -0.014032237 0.15539688 0.00046903608 -0.104935154 -0.13640489
-0.05105535 0.11026931 0.029869946 -0.1217207 0.081919774 -0.068924814 -0.069813326 -0.03533392
0.051991813 0.12730792 0.13438804 -0.31275162 0.119878806 -0.06940712 -0.0027142114 -0.0038278666
0.05211538 0.13116731 -0.16417126 -0.05411042 0.13810268 -0.028758127 0.024091028 -0.019496135
0.017307626 -0.10265397 -0.09888984 -0.53295976 -0.23233178 -0.607032 -0.16043578 0.007610711
-0.03892429 -0.10434366 -0.14832513 -0.31342235 -0.72423905 -0.16988805 -0.17590564 -0.06150537
0.03878186 -0.1223033 -0.059684973 0.01061248 0.1796326 -0.022296706 -0.16413881 0.009487421
0.02052034 -0.16239843 -0.1040809 0.094639026 0.061467 0.009890569 -0.17579865 -0.07356093
0.034046814 -0.15493536 -0.018811975 0.11284674 0.015696613 0.05085467 -0.19145048 0.017821202
-0.05957114 -0.21823195 0.06851038 0.082719415 -0.15078615 0.19097818 -0.19200177 -0.059268888
-0.052099533 -0.2692794 0.0782931 0.124684535 -0.23944353 0.11385166 -0.02722881 -0.15240517
-0.020686964 -0.22082719 0.22778635 0.06364886 -0.111731194 0.055571947 0.051502675 -0.15900213
0.026138518 0.031752005 0.051910922 0.058510225 0.02962203 0.056951817 0.053955153 0.021361064
0.063000634 0.026121922 0.024467465 0.034960072 0.0688551 0.050990768 -9.924234e-06 0.05521495
0.06412154 0.08695724 -0.78312033 -0.71049863 -0.7105534 -0.78326184 0.09374856 0.051195502
-0.0011632856 -0.0019851543 -0.7225759 -0.028434416 -0.084000275 -0.7042887 0.025818385 0.0029399693
0.03885125 -0.0053399825 -0.75444704 -0.15084009 -0.11487105 -0.63372123 0.057263624 0.06147647
0.07565764 0.0561259 -0.749487 -0.77640873 -0.71554846 -0.8910257 0.045659684 0.068614
0.06412838 0.00983997 0.06511342 0.028911054 0.045265354 0.025282823 0.026341751 0.05246512
-0.019201666 0.06621924 0.057778332 0.023037847 0.055505216 0.06629128 0.017528221 0.014248327
-0.027407924 -0.34361985 0.089669794 0.124696776 0.16679442 -0.22333062 -0.06893415 0.026059104
-0.11109405 -0.5478761 -0.4553121 -0.3383887 -0.3880266 -0.5666762 -0.0795436 -0.12285806
-0.1376897 -0.4666161 -0.21830782 -0.25798142 -0.22494142 -0.51238513 0.05323537 0.03811193
0.11088594 -0.3034823 -0.8568221 0.6261927 -0.39806503 -0.44932246 -0.12786636 0.08791427
0.1687891 0.12659843 -0.94695437 0.14889969 -0.4863965 -0.5227373 -0.066193074 0.063489266
-0.075236216 -0.02183082 -0.4315891 -0.44426936 -0.38234633 0.3395953 -0.14993416 -0.5857258
-0.06666223 -0.2853922 -0.056735657 0.3803875 -0.033451684 -0.62267154 -0.76623166 -0.44078824
0.13883197 -0.16487092 0.044880893 0.006960414 -0.025707955 -0.051841367 0.035893768 0.051173247
00000000: ca6b 87bd c414 48bd 89b1 82be 0865 a0be
00000010: 1b83 c5be 0768 fdbe 4408 b23c a291 ea3c
00000020: dee5 0abe 9402 4bbe 4505 a4be bc33 4abf
00000030: b710 77be 92ae 3d3d eed7 b73d f925 49bd
00000040: f283 dabd 5271 18bd b59f 853d c931 0e3e
00000050: 7471 e6be 176e 29bf c537 19bf 5e81 a3be
00000060: 30d6 29bd 82d1 aebb b347 953c 87e3 133d
00000070: 1c1a 083e a0c4 173d 33dc 19be a7f0 44be
00000080: 491d 70bd fef2 c03c 0c31 4a3d 78e7 65bc
00000090: 5c20 1f3e f5e8 f539 3ee8 d6bd b9ad 0bbe
000000a0: 6a1f 51bd e0d4 e13d d1b1 f43c b448 f9bd
000000b0: 8ec5 a73d 7428 8dbd 4afa 8ebd 4dba 10bd
000000c0: 5ef5 543d 025d 023e 059d 093e fb20 a0be
000000d0: 0583 f53d 5225 8ebd e9e0 31bb f2dc 7abb
000000e0: f076 553d b950 063e 831c 28be e3a2 5dbd
000000f0: ca6a 0d3e 2a96 ebbc 8c5a c53c 5cb6 9fbc
00000100: b9c8 8d3c 3f3c d2bd c286 cabd 0d70 08bf
00000110: 62e8 6dbe 7366 1bbf 4749 24be 4563 f93b
00000120: 146f 1fbd 21b2 d5bd 8be2 17be e578 a0be
00000130: bb67 39bf 22f7 2dbe 9c20 34be 0eed 7bbd
00000140: bad9 1e3d 277a fabd 3b78 74bd f8df 2d3c
00000150: 9cf1 373e 95a7 b6bc 0114 28be 2171 1b3c
00000160: 461a a83c c64b 26be 5e28 d5bd 1bd2 c13d
00000170: d2c4 7b3d 0e0c 223c 9004 34be 1da7 96bd
00000180: ac74 0b3d 60a7 1ebe 921b 9abc 311c e73d
00000190: 2f96 803c fd4c 503d 980b 44be c5fd 913c
000001a0: de00 74bd 3278 5fbe 2c4f 8c3d cc68 a93d
000001b0: af67 1abe c98f 433e 1d9c 44be efc3 72bd
000001c0: 5266 55bd fdde 89be 2258 a03d 9b5a ff3d
000001d0: af30 75be 0f2b e93d f40e dfbc 1a10 1cbe
000001e0: b577 a9bc 8620 62be d340 693e 555a 823d
000001f0: 53d3 e4bd 699f 633d 78f4 523d 74d1 22be
00000200: 7220 d63c 640e 023d 8ca0 543d 6ba8 6f3d
00000210: e6a9 f23c 4f46 693d 1400 5d3d 66fd ae3c
00000220: 7a06 813d a4fd d53c fe6f c83c 4b32 0f3d
00000230: e703 8d3d b2db 503d 4380 26b7 1229 623d
00000240: 2752 833d a316 b23d 937a 48bf 3de3 35bf
00000250: d4e6 35bf d983 48bf 3fff bf3d 60b2 513d
00000260: 6379 98ba 5d19 02bb bcfa 38bf 4bef e8bc
00000270: 5608 acbd 444c 34bf 1481 d33c 80ac 403b
00000280: 7d22 1f3d 05fb aebb 7123 41bf d375 1abe
00000290: 8341 ebbd 8e3b 22bf 438d 6a3d c0ce 7b3d
000002a0: 65f2 9a3d 46e4 653d 61de 3fbf b9c2 46bf
000002b0: 2f2e 37bf 431a 64bf a605 3b3d 7f85 8c3d
000002c0: bd55 833d d337 213c 2f5a 853d e0d6 ec3c
000002d0: 2a68 393d ec1d cf3c a8ca d73c aae5 563d
000002e0: d04c 9dbc f49d 873d f9a8 6c3d deb9 bc3c
000002f0: 7059 633d b9c3 873d 5897 8f3c d171 693c
00000300: 9586 e0bc f1ee afbe cca4 b73d 0661 ff3d
00000310: 28cc 2a3e c8b0 64be 592d 8dbd e779 d53c
00000320: 4785 e3bd 9c41 0cbf ab1e e9be 4941 adbe
00000330: 6cab c6be b111 11bf c1e7 a2bd 029d fbbd
00000340: 87fe 0cbe 4ee8 eebe 168c 5fbe 2416 84be
00000350: 0b57 66be ac2b 03bf 550d 5a3d 411b 1c3d
00000360: 2b18 e33d 0862 9bbe b158 5bbf 2a4e 203f
00000370: 2ecf cbbe 980d e6be 66ef 02be 660c b43d
00000380: 0dd7 2c3e 05a3 013e 9a6b 72bf 2979 183e
00000390: f608 f9be 1dd2 05bf 3c90 87bd a906 823d
000003a0: 7215 9abd 8cd6 b2bc 3ff9 dcbe 4677 e3be
000003b0: e6c2 c3be 6fdf ad3e 5788 19be 20f2 15bf
000003c0: 3586 88bd ed1e 92be a663 68bd 27c2 c23e
000003d0: a204 09bd 6767 1fbf c227 44bf ffae e1be
000003e0: f829 0e3e ecd3 28be 07d5 373d 2f14 e43b
000003f0: 7d99 d2bc 9d57 54bd 5805 133d 0a9b 513d

fc1.bias f4 [16]
-0.06516958 -0.14963259 -0.062082544 0.37879488 0.5659412 -0.071195535 0.41832295 -0.0872793
-0.03962949 -0.1365311 -0.08561745 -0.013613475 -0.058347277 -0.072151355 -0.0005480424 0.64453214
00000000: a177 85bd 4939 19be 444a 7ebd 67f1 c13e
00000010: 86e1 103f f7ce 91bd 6d2e d63e 7dbf b2bd
00000020: 8852 22bd cfce 0bbe 3458 afbd 0d0b 5fbc
00000030: 8efd 6ebd 17c4 93bd 81aa 0fba 0f00 253f

fc2.weight f4 [1, 16]
0.039980482 0.10011622 -0.54589444 -0.13984545 -0.16371678 0.055106364 -0.107800454 0.046506584
-0.2086672 0.01823855 0.07918461 -0.24250177 0.07019608 -0.22000746 -0.18713507 -0.30251697
00000000: 93c2 233d bc09 cd3d bdbf 0bbf a533 0fbe
00000010: 5fa5 27be 36b7 613d 7cc6 dcbd b07d 3e3d
00000020: dbac 55be 0369 953c 8a2b a23d 6252 78be
00000030: f6c2 8f3d a349 61be 56a0 3fbe 81e3 9abe
