Trained_bad_1.pt (torch, 5967 bytes, 3 tensors)

fc1.weight f4 [16, 64]
00000000: 4c26 ffbd 91d0 33bd 5696 88bc 6dbe 0fbd
00000010: 7e30 22bd 3ba8 9e3d 8ccf 9cbd dc86 c0bd
00000020: 4689 cabd 0ea4 91bd e9ee ff3b d63d 4b3c
00000030: bc9c e63d a2d1 dfbc fc16 0abd 13f6 87bc
00000040: da45 31bd b45d 0b3d 4be3 90bd 0596 d53b
00000050: efb7 013e d702 74bd 9723 67bd 01d0 c73d
00000060: b7f6 803d 407c 5cbc 8aa5 953d aa36 13bc
00000070: 2fa7 b23b 5587 e0bc 1d65 ca3b 0b78 93bd
00000080: 315d 5fbb a26c 48bd eebc ecbd ad4e 1abd
00000090: 3f86 513d ab3a 753c a914 5b3d 9c1c 75bc
000000a0: b78e 0abd 1659 7abd 6ebb 943c cff3 1fbd
000000b0: 2de5 d4bd 8355 953d ab35 483d 9989 51bd
000000c0: 1b25 bebd a0f3 993d 9b07 39bd 6c0e dabd
000000d0: 56f5 e5bd e4b9 4ebd 2438 4f3d 5d5b 9b3d
000000e0: 8d03 da3d 8589 d5bd e8b0 c9bd 8eb7 6d3b
000000f0: 65cb e9bc f994 2ebd b19d 6dbd e5fb 0e3d
00000100: 4975 74bc b4a1 e8bc 3286 1cbc 19b2 5c3d
00000110: 3628 ec3d cd79 98bd 7db0 46bd ab90 d0bc
00000120: 03b6 c4bd a7e4 683b 7c5c f9bb f95c 07bd
00000130: a3a2 09be 52ae 3abd 8cb6 4a3c 6962 df3d
00000140: 879e 43bd 829d 3bbd 19ad 19be de92 a0bd
00000150: 8ce9 3fbc 2acd 1abe 7df8 51bc 341a 89bc
00000160: 5d0d eb3c 2c9a 8b3c 399d 04be b401 73bd
00000170: 6134 d6bd 07fc efbd d4b9 ff3c 849f 51bd
00000180: 135e b63d 194e b6bc 7422 27be c5fb 8b3d
00000190: ecb3 bbbd 37e1 9fbd 1522 573c db91 c2bc
000001a0: 7a4d 6c3d 37aa 8cbd eabe 0abe 05f9 fabd
000001b0: 9f63 63bd cf1e 15be c760 273d 4c24 59bd
000001c0: adc0 12bd 0777 3c3d 7dcb 4dbd 0dad f7bc
000001d0: 5309 08be 0576 84bd 2ceb 643d 9b8b 37bd
000001e0: 783f 9ebd 8cc6 75bd 9396 d83c 92a0 173e
000001f0: 8202 1f3e 2821 853d a650 153d c11a d4bd
00000200: 49ff 9a3d b7ab 233d d2a2 05be 19b6 023c
00000210: c9ec 6cbd fd13 a03c b352 7a3d d7fb 7cbd
00000220: 9475 7fbb 71c8 213d 6e93 dbbb bab1 bbbc
00000230: f6d2 44bd 2efb f9bc 3733 7fbd ef1d c2bd
00000240: 4cf2 863c 17d0 403b b3be f03d 9401 f7bd
00000250: f57c 93bc 85da ecbb a081 c0bd 10e6 1cbc
00000260: a1d3 c2ba 6de6 9fbb 8299 393b 4024 abbd
00000270: 1b9f ad3d af02 e9bd c67d adbc 9952 a43c
00000280: 3898 42bd feda 39bc a91a 32bd 84e1 17bd
00000290: 8287 c3bd 5552 87bd 8e53 883d 3f8a bfbd
000002a0: 8e9a d9bc fd46 bc3b fb1c 8cbd 0298 00be
000002b0: 92ef c7bb e877 92bd 00e1 bebd 5acb 02be
000002c0: b1ae 113e 8e23 d23d 4082 cebd 2250 f43c
000002d0: 024f d2bd 0cfd 89bd bc0c 6dbd d908 2d3d
000002e0: 0382 b4bd 1120 c4bd 71ea 2b3c 345b 0cbd
000002f0: 7f37 f4bc 953e aabd 2ef9 22be c21e 7c3d
00000300: 783f e5bc 3031 733c 3d2d db3c 95bc ecbd
00000310: 0661 e63b 00a9 133d f253 023c 6830 073d
00000320: e005 38bc 3b63 5e3d 5d4f e13c 9b2f a3bd
00000330: 624e 73bd 7a33 91bd 09b3 afbd 869f 37bd
00000340: 43e1 773d c4a6 2c3b 1580 6a3d e635 d6bd
00000350: d1bd ebbd 268e 30bb 0ff3 323d ff55 58bd
00000360: 73b0 c0bd 327c 033d b6fc 6cbd c780 363d
00000370: daeb c3bd 0ade b53c b015 073c 962b 803d
00000380: 3d4f fcbd 2890 663d c4da a7bd 896b 63bd
00000390: 668a ec3c 85bc e83c bce5 eabd 1d2b a2bd
000003a0: 1710 04bd 368a fbbd 6c47 bbbc 8fe5 5cbd
000003b0: 03b9 473c 7753 c5bd d756 19be 23f4 27bb
000003c0: 16ad 013c 34ba 9dbb 33ad 6ebc 4227 d8bd
000003d0: 1307 c0bc ae9d 9b3d 3937 acbd a5a8 47bd
000003e0: 06cc 08be 959f 8cbd efdf 47bd 9548 17be
000003f0: 61b5 863c 910f efbc 2d2e 06be 9258 29bd
-0.124584764 -0.043900076 -0.016673248 -0.035093714 -0.039597027 0.07746931 -0.07656774 -0.094007224
-0.09889464 -0.07111369 0.0078104627 0.01240488 0.112603635 -0.02732164 -0.033713326 -0.01659683
-0.043279506 0.03402491 -0.07074603 0.006518128 0.12667821 -0.05957302 -0.056430425 0.097564705
0.06297057 -0.013457358 0.07306965 -0.008985201 0.0054520587 -0.027408281 0.0061766044 -0.07200631
-0.0034082646 -0.048931725 -0.11559473 -0.037672687 0.051153418 0.014967601 0.0534865 -0.014960434
-0.03382751 -0.061120115 0.01815578 -0.039050873 -0.10395274 0.07291701 0.048879307 -0.051156614
-0.09284421 0.07517171 -0.04517327 -0.10647282 -0.11228435 -0.050470248 0.05059065 0.075857855
0.106452085 -0.104266204 -0.09848195 0.0036272737 -0.028539369 -0.04262254 -0.058011714 0.034908194
-0.014920541 -0.028397419 -0.009553479 0.053880785 0.11531107 -0.07445107 -0.048508156 -0.025459608
-0.096050285 0.0035536678 -0.007609902 -0.03304765 -0.13440947 -0.0455764 0.012372624 0.10907442
-0.047758605 -0.045804508 -0.15007438 -0.07840513 -0.011713397 -0.15117326 -0.012815592 -0.016736127
0.028692896 0.017041288 -0.129506 -0.059327796 -0.10459209 -0.11717992 0.03121654 -0.051177517
0.08904662 -0.022254037 -0.16321737 0.068351306 -0.09165177 -0.07806628 0.013130684 -0.02375119
0.057691075 -0.068684034 -0.1354939 -0.12254528 -0.055514928 -0.14562534 0.04086378 -0.05301313
-0.03582828 0.04601195 -0.05024289 -0.030233884 -0.13284807 -0.06467823 0.05588834 -0.044810873
-0.077269495 -0.060003802 0.026438987 0.14807346 0.155283 0.06500465 0.036453865 -0.103566654
0.07568223 0.039958682 -0.13050392 0.007977986 -0.057843003 0.019540781 0.061114024 -0.06176361
-0.0038979994 0.039497796 -0.0067009246 -0.022911895 -0.04805275 -0.03051528 -0.0623047 -0.09478366
0.016472958 0.0029420906 0.11755123 -0.12060848 -0.01800392 -0.007228198 -0.09399724 -0.009576336
-0.0014864096 -0.004879764 0.0028320258 -0.083565235 0.084776126 -0.11377465 -0.021178138 0.020058917
-0.04750845 -0.011343716 -0.043482456 -0.037080303 -0.095473304 -0.066075005 0.06656562 -0.0935254
-0.026562955 0.005745767 -0.06841465 -0.12557986 -0.006101557 -0.071517766 -0.09320259 -0.12772885
0.14226796 0.10260688 -0.10083437 0.029823367 -0.10268976 -0.06737718 -0.057873473 0.042244766
-0.0881386 -0.09576429 0.010492907 -0.034266666 -0.029811619 -0.08312718 -0.15915367 0.06155277
-0.027984366 0.01484327 0.02675497 -0.11559407 0.007030609 0.036049843 0.007954584 0.03300515
-0.011231869 0.054293852 0.027503664 -0.079680644 -0.059400924 -0.070898965 -0.0857907 -0.044829868
0.06051756 0.0026344517 0.057251055 -0.10459499 -0.11510814 -0.0026940196 0.04368883 -0.052816387
-0.09408655 0.032100864 -0.05785819 0.044556405 -0.095664695 0.022200603 0.008244917 0.06258313
-0.12319801 0.056289822 -0.08196023 -0.055522475 0.028874587 0.028410206 -0.114695996 -0.079183795
-0.032241907 -0.12282221 -0.022861205 -0.05392986 0.012190106 -0.0963506 -0.14974533 -0.0025627695
0.007914802 -0.004813457 -0.014567661 -0.10554363 -0.023440873 0.075984344 -0.084089704 -0.048744816
-0.13359079 -0.06866375 -0.048797544 -0.14773782 0.01644391 -0.029182227 -0.13103552 -0.041344233

fc1.bias f4 [16]
00000000: f697 2fbc cc51 2c3e 0e5e a7bd 13f0 aabd
00000010: 6c7d ceb9 38bf 2abd d3ac bcbd fb15 d3bd
00000020: a34e 17b9 e2f5 bab9 2cc1 483f 443f 9abd
00000030: 97de e3bd df7e e8bd 38ec 82bd 0628 bbbc
-0.010717383 0.16828078 -0.081722364 -0.08346572 -0.00039384828 -0.041686267 -0.09212651 -0.10306927
-0.00014429777 -0.00035659882 0.78419757 -0.07531598 -0.1112644 -0.11352324 -0.063927114 -0.022846233

fc2.weight f4 [1, 16]
00000000: afeb 303d ca29 1cbe 1fbd 7a3d a2a6 ea3c
00000010: 0744 903d 3652 733d 9fe3 5abe 9a2c 503d
00000020: 996e 983d 9b36 493d fab0 2dbf 8baf 24be
00000030: 79b9 da3c 8b90 d3bd f3cb 0b3c 0cc9 6d3d
0.043193515 -0.15250316 0.061215516 0.02864391 0.07044225 0.059404574 -0.21375893 0.050823785
0.0744297 0.04912434 -0.6784817 -0.1608259 0.026699768 -0.10330304 0.008532512 0.05805306
